src/model/voice-mode/Hey_Sen_she_ent.onnx (onnx, 205430 bytes, 9 tensors)

layer1.weight f4 [32, 1536]
0.01820003 -0.016288618 -0.0249577 -0.013155827 0.010936732 -0.011759796 -0.019701859 0.02246541
0.009018159 0.008141135 0.0058687455 0.0080665825 -0.031554066 0.012556463 -0.026707547 0.019309493
-0.033658568 0.026762886 0.020106401 0.0011882439 0.025419042 -0.0002748714 -0.022982206 -0.012004988
0.0036584912 0.008497004 0.017194277 -0.00042082492 -0.030935673 -0.0054219607 -0.010659385 0.009955999
-0.013226278 -0.017277135 0.0023960292 0.013696116 -0.0013089555 -0.021373242 0.03165932 -0.020217163
0.021251593 -0.0057153613 -0.023194607 0.011694496 0.022274543 -0.0029522064 0.007872496 0.0032523265
-0.0056652864 0.032363452 -0.0013134901 0.0067765824 0.003928978 -0.012782208 0.024823412 -0.022394624
-0.0055093598 0.01624251 -0.020057453 0.00080868206 0.02661284 0.004376608 0.012355771 0.011351351
0.013672657 -0.012609384 0.008556852 0.005571262 -0.021845542 0.015650064 0.012951472 -0.018865028
0.025722481 -0.0034735166 -0.01584201 0.03543251 0.039373785 0.014413214 -0.009609085 -0.001966081
0.02185547 0.022252478 0.0010145853 0.023804694 -0.024377372 -0.021877592 0.008003276 -0.0051497184
-0.017841816 0.021925593 0.001441609 0.0047589745 -0.018545631 0.024618601 -0.008043312 -0.024547728
-0.0056071808 0.012414015 -0.025744451 -0.018769527 0.010382752 -0.017484153 -0.025872575 -0.0063427836
-0.018894814 -0.0013461045 0.007896357 -0.0032586362 0.005998162 -0.0036584623 -0.020724794 -0.026516411
-0.019329822 0.0019794519 -0.01204392 -0.01803004 -0.016681781 -0.00022151957 0.011939971 0.006552185
-0.009131951 0.022091497 -0.011478839 -0.022950841 -0.0161608 -0.0023824344 0.011478391 0.0072071766
-0.012978368 -0.021234771 0.00078764 -0.006816926 -0.00037451446 -0.010013876 0.008821736 0.017589414
0.007867516 -0.02634916 -0.025767801 0.023997491 0.026961215 -0.002956733 -0.019615188 -0.0032091814
-0.016780194 0.03146067 -0.0039435583 0.0011436944 -0.006704658 -0.017962469 0.01744516 0.0018587686
0.021966157 -0.002614678 -0.002860253 -0.017194798 -0.0062285024 0.015467166 -0.01479663 -0.020635081
0.020718887 -0.016020158 0.0147649925 -0.019811781 0.027985815 0.019092547 -0.022443654 -0.016074048
-0.009330172 -0.021068418 0.025446193 0.02014662 0.038909666 0.019803945 0.026830466 -0.015419676
-0.0009620908 0.009312359 0.0007390849 -0.012527565 0.020599453 -0.022838062 -0.02019571 -0.011116062
-0.023998018 -0.015900454 0.021988178 0.016002176 -0.004285314 -0.0003356757 -0.0012901472 0.023910157
0.00165169 0.010981706 -0.0227563 -0.020659393 0.008005254 0.016189154 -0.00816673 0.022769164
-0.0211057 -0.018601647 -0.016856026 0.003887976 0.0008760036 -0.024785466 -0.017191477 0.025248153
-0.0040353416 0.006949601 0.0032877887 0.021113051 0.0071692104 -0.0072535966 0.017426176 -0.014486253
0.003737398 0.008029074 -0.023155442 -0.005459486 -0.017254366 0.010362172 -0.01097125 -0.0010575439
0.006042278 -0.00792566 -0.010637604 -0.0038583402 -0.017832985 -0.02271753 0.0127951065 0.011868346
0.016142856 -0.02352604 -0.0030883346 0.0003586074 -0.0025482397 -0.020642823 0.0162904 0.026968934
0.016170755 0.032963175 0.012187368 0.017390512 0.010600697 0.024096506 0.013925732 -0.006674454
-0.02248642 0.011100553 -0.0056004855 0.0127839325 -0.026060853 -0.026127687 -0.0032928677 -0.024614621
00000000: 3b18 953c b56f 85bc 1774 ccbc 8a8b 57bc
00000010: fb2f 333c 29ac 40bc cb65 a1bc 6109 b83c
00000020: e6c0 133c 6562 053c 9b4e c03b b329 043c
00000030: d63e 01bd 9fb9 4d3c c9c9 dabc f12e 9e3c
00000040: 91dd 09bd d73d db3c 2eb6 a43c d9be 9b3a
00000050: 983b d03c 9d1c 90b9 2e45 bcbc 92b0 44bc
00000060: 4cc3 6f3b 0537 0b3c 03db 8c3c 2aa2 dcb9
00000070: cf6c fdbc b4aa b1bb b3a4 2ebc 7d1e 233c
00000080: 08b3 58bc c788 8dbc b306 1d3b ad65 603c
00000090: 4291 abba f016 afbc 34ad 013d 779e a5bc
000000a0: d217 ae3c ed47 bbbb 9e02 bebc 459a 3f3c
000000b0: 1a79 b63c ce79 41bb a4fb 003c fc24 553b
000000c0: dea3 b9bb 8a8f 043d 6a29 acba 180e de3b
000000d0: a8be 803b 776c 51bc 785a cb3c ee74 b7bc
000000e0: dc87 b4bb 030f 853c 874f a4bc bcfd 533a
000000f0: 2c03 da3c a669 8f3b dc6f 4a3c 04fb 393c
00000100: 4803 603c 9797 4ebc 0a32 0c3c 228f b63b
00000110: 6cf5 b2bc 9034 803c 6932 543c d58a 9abc
00000120: f4b7 d23c f0a3 63bb 1ac7 81bc ae21 113d
00000130: 6846 213d 6725 6c3c 6c6f 1dbc 5ed9 00bb
00000140: 3e0a b33c d44a b63c d5fb 843a 1002 c33c
00000150: 0eb3 c7bc a338 b3bc 2c20 033c f8be a8bb
00000160: 0029 92bc 4d9d b33c 5ff4 bc3a 2cf1 9b3b
00000170: 02ed 97bc f3ac c93c 18c8 03bc 5118 c9bc
00000180: 71bc b7bb 2764 4b3c 07e6 d2bc 8dc2 99bc
00000190: 6b1c 2a3c ed3a 8fbc b9f2 d3bc 20d7 cfbb
000001a0: 4cc9 9abc c66f b0ba b95f 013c d88e 55bb
000001b0: 3b8c c43b d0c2 6fbb 0bc7 a9bc f238 d9bc
000001c0: 9359 9ebc b1b9 013b dd53 45bc bcb3 93bc
000001d0: 3ba8 88bc b547 68b9 de9f 433c b6b3 d63b
000001e0: 2e9e 15bc 3af9 b43c be11 3cbc 6703 bcbc
000001f0: a763 84bc 9e22 1cbb dc0f 3c3c 2e2a ec3b
00000200: 39a3 54bc 8bf4 adbc a079 4e3a 8560 dfbb
00000210: 7b5a c4b9 3d11 24bc 0b89 103c ad17 903c
00000220: c1e6 003c 32da d7bc ff16 d3bc 6396 c43c
00000230: c4dd dc3c c0c5 41bb 08b0 a0bc 2151 52bb
00000240: 9e76 89bc e7dc 003d f738 81bb 04e8 953a
00000250: bfb2 dbbb 0726 93bc 27e9 8e3c eda1 f33a
00000260: 5ff2 b33c 045b 2bbb 1573 3bbb 1bdc 8cbc
00000270: 7718 ccbb ff69 7d3c 906d 72bc e70a a9bc
00000280: a8ba a93c b53c 83bc dee8 713c 514c a2bc
00000290: 8242 e53c f967 9c3c c1db b7bc b9ad 83bc
000002a0: 94dd 18bc ad97 acbc 8974 d03c 860a a53c
000002b0: be5f 1f3d e23b a23c 91cb db3c cfa2 7cbc
000002c0: d234 7cba dd92 183c 26bf 413a 6a40 4dbc
000002d0: 2fc0 a83c e316 bbbc 7971 a5bc 2520 36bc
000002e0: 7e97 c4bc ab41 82bc 8d20 b43c ff16 833c
000002f0: d26b 8cbb a1fd afb9 281a a9ba 3cdf c33c
00000300: 857d d83a 9dec 333c 6c6b babc e33d a9bc
00000310: 7828 033c 1e9f 843c c0cd 05bc 6686 ba3c
00000320: dce5 acbc 7b62 98bc a615 8abc 6acd 7e3b
00000330: 9ba3 653a e40a cbbc 24d5 8cbc 37d5 ce3c
00000340: e63a 84bb 7bb9 e33b f177 573b 47f5 ac3c
00000350: b2eb ea3b 94af edbb 57c1 8e3c c057 6dbc
00000360: 22ef 743b 618c 033c 7bb0 bdbc 7de5 b2bb
00000370: 0759 8dbc 19c6 293c c2c0 33bc 499d 8aba
00000380: 4dfe c53b a1da 01bc 5849 2ebc 35dc 7cbb
00000390: 7b16 92bc 1d1a babc 91a2 513c 7373 423c
000003a0: 063e 843c afb9 c0bc a865 4abb 7803 bc39
000003b0: 5e00 27bb 231b a9bc 7273 853c f4ed dc3c
000003c0: 8878 843c 6504 073d 87ad 473c 8c76 8e3c
000003d0: 8cae 2d3c 0966 c53c c128 643c 61b5 dabb
000003e0: 7135 b8bc 18df 353c 4784 b7bb b373 513c
000003f0: 927d d5bc bb09 d6bc 27cd 57bb 9aa4 c9bc

layer1.bias f4 [32]
-0.021043794 -0.009787612 0.011349023 0.003907028 -0.019995933 -0.0014382723 -0.017769184 -0.017880578
0.019433765 0.01978203 -0.002575727 0.020876624 0.012476616 0.0014142281 0.011193657 -0.0070703696
0.020842038 -0.027148668 -0.029520888 -0.015602503 -0.011338031 0.0022299285 0.018254397 0.024322087
-0.02367643 0.020309867 -0.007165916 0.0075936774 -0.0055326386 0.020472594 0.02550339 -0.00075888366
00000000: 0964 acbc 385c 20bc 41f1 393c 8706 803b
00000010: 83ce a3bc 6984 bcba ae90 91bc 4a7a 92bc
00000020: 8f33 9f3c ec0d a23c 87cd 28bb 7405 ab3c
00000030: b86a 4c3c 9f5d b93a 9a65 373c 8fae e7bb
00000040: ecbc aa3c e266 debc cad5 f1bc a4a1 7fbc
00000050: 26c3 39bc fe23 123b 3f8a 953c 1d3f c73c
00000060: 13f5 c1bc e160 a63c 0fd0 eabb 62d4 f83b
00000070: 234b b5bb 24b6 a73c 7cec d03c d2ef 46ba

layernorm1.weight f4 [32]
0.9951051 0.98879457 1.0320065 0.9826602 1.0450821 0.9857427 0.9999321 0.9726832
0.96941376 0.9782178 0.9811953 1.0319299 0.9829255 1.0057802 0.99212146 0.9784695
1.0096004 1.0014299 0.9535772 0.9822595 1.0026749 0.9961943 0.9977008 0.95883816
0.98844993 1.0162933 1.0069511 1.001371 1.0200335 1.0184715 0.97671884 0.9953823
00000000: 35bf 7e3f a421 7d3f ca18 843f 9e8f 7b3f
00000010: 40c5 853f a259 7c3f 8dfb 7f3f c401 793f
00000020: 802b 783f 7b6c 7a3f 9d2f 7b3f 4716 843f
00000030: 01a1 7b3f 68bd 803f acfb 7d3f fa7c 7a3f
00000040: 963a 813f db2e 803f a31d 743f 5c75 7b3f
00000050: a757 803f 9706 7f3f 5269 7f3f 6b76 753f
00000060: 0e0b 7d3f e615 823f c6e3 803f ed2c 803f
00000070: 7590 823f 465d 823f 3f0a 7a3f 60d1 7e3f

layernorm1.bias f4 [32]
-0.0151204495 -0.009551079 0.0032735367 -0.004763243 0.03900848 -0.011032566 0.003542636 0.008884902
-0.053473264 -0.0034331977 0.029249858 0.0059815664 0.009792955 0.00096067827 -0.011312261 0.018478936
-0.00081138674 0.012206092 -0.022645438 -0.010388148 0.0052821967 -0.015404159 -0.009893396 0.019974008
-0.011204042 0.0057238024 0.011249703 -0.005492662 0.009840401 -0.006782887 0.009605726 -0.009753294
00000000: c3bb 77bc 217c 1cbc d588 563b fa14 9cbb
00000010: 5bc7 1f3d f0c1 34bc 922b 683b fb91 113c
00000020: c806 5bbd 80ff 60bb 669d ef3c 0401 c43b
00000030: a172 203c 07d6 7b3a 1057 39bc 2361 973c
00000040: 3eb3 54ba 0ffc 473c ed82 b9bc 0d33 2abc
00000050: 4716 ad3b ba61 7cbc e917 22bc 88a0 a33c
00000060: 2891 37bc bc8e bb3b ad50 383c cafb b3bb
00000070: a239 213c fb42 debb 5661 1d3c 48cc 1fbc

blocks.0.fcn_layer.weight f4 [32, 32]
0.05702449 0.004838878 -0.01625646 -0.064351566 -0.059790168 -0.08866278 0.059896726 -0.005543244
-0.09745257 -0.08716961 -0.0014097806 0.028755259 -0.0096652815 -0.111157 -0.09382433 -0.08779899
0.102975324 0.0887751 0.12650533 -0.06494569 0.14194344 0.16617683 0.13522337 0.15877278
0.10559276 0.13447665 -0.048963703 0.08217507 -0.04552393 -0.056220204 -0.11294069 -0.111127295
-0.1743879 0.04421347 -0.07606012 -0.11614323 0.05747693 -0.049521163 -0.14170457 -0.10546425
-0.061403267 0.10094324 0.022934282 0.121559344 -0.043478098 -0.1502888 0.15029918 -0.018584054
-0.030859774 0.020915706 0.012083766 -0.10210435 0.019661741 0.16067334 0.12353877 -0.18765505
0.054203838 0.070752 0.06632442 -0.065661766 0.14487521 -0.16460794 0.067536905 0.108444236
0.14100182 0.11883115 0.107382104 0.07314064 -0.10800173 -0.04849489 -0.00550143 0.10328874
0.12228898 0.103703655 -0.04840792 0.056641333 -0.03539071 0.029065602 -0.024332022 0.05511312
-0.0031961785 -0.0038004562 0.01801743 -0.06454246 -0.19497862 -0.15914613 -0.12554274 -0.1206655
0.11129723 -0.15521671 -0.124281995 -0.041459616 0.049788 0.042230766 0.10928272 -0.098783255
0.02287441 0.07562601 -0.115904175 0.0013218377 0.04060557 -0.043095637 -0.12124197 -0.0051310007
-0.07596637 0.020132927 0.1747543 -0.09422018 -0.012127177 0.21714997 0.0618492 0.17841645
-0.107182115 0.017632114 -0.04342693 0.10013678 -0.13459797 -0.020288296 -0.1489504 0.16151235
-0.13708124 0.13108252 -0.13304779 0.011569982 -0.023075933 0.057832193 -0.07377791 -0.05075966
0.06731386 0.11974454 0.030088123 -0.011819719 -0.13396658 -0.026160354 -0.12626746 -0.10034342
0.14181814 -0.18035796 -0.03402662 -0.0570593 0.13628057 -0.021179495 -0.1600485 -0.13000955
-0.07436967 0.036793154 0.06807936 0.038510438 -0.15136997 0.1121506 -0.124403805 -0.09812364
0.035251435 -0.011102684 0.03166166 0.05777115 0.14205252 0.13331765 0.10317726 0.10755313
0.091150224 -0.09457714 0.12901685 -0.17296216 -0.010885572 0.120934494 0.0773565 -0.16707127
-0.03570441 0.044636715 -0.11879478 0.1657621 -0.08337246 -0.061651148 -0.016392715 0.022115704
0.020903967 -0.13448189 0.061638065 0.024248675 -0.0045959684 0.009821777 0.05710579 0.021311251
-0.08516421 0.035537932 0.034855224 -0.057949368 0.1460035 -0.085634224 -0.0032591198 -0.14757596
0.15460543 0.16499895 -0.18657406 -0.109561116 -0.0070739216 -0.057144716 0.14863245 -0.047009204
0.07275083 -0.08484557 -0.08552919 -0.14211541 0.025063645 0.18489556 0.13259204 0.13653229
0.19237946 0.20057142 -0.100333005 -0.08946943 -0.110898346 0.00039086214 0.13684094 0.12559533
0.13521416 0.11649618 -0.039290123 -0.003156615 -0.093269765 0.16369058 0.02197525 0.143575
-0.14539136 -0.10331636 0.033603452 0.08298018 0.13640939 0.16163027 -0.07686356 0.08992347
0.031723753 -0.11248956 -0.017207377 -0.016428795 -0.02923647 -0.06225458 -0.024629679 0.1484815
0.07269487 -0.034500137 0.040030453 0.020840995 0.023964806 0.051457386 0.13513997 -0.14818688
0.048162553 0.002133132 0.11258999 -0.16069297 -0.09367149 -0.029040568 0.11105286 -0.085903734
00000000: 8392 693d 738f 9e3b 452c 85bc c1ca 83bd
00000010: 89e6 74bd d594 b5bd 4556 753d 1aa4 b5bb
00000020: 3795 c7bd fb85 b2bd 63c8 b8ba 2690 eb3c
00000030: 215b 1ebc 48a6 e3bd f826 c0bd f5cf b3bd
00000040: bae4 d23d b8cf b53d 9d8a 013e 3f02 85bd
00000050: 9f59 113e 422a 2a3e ff77 0a3e 5595 223e
00000060: 0441 d83d 3fb4 093e 2a8e 48bd 674b a83d
00000070: 4d77 3abd 2847 66bd 734d e7bd b596 e3bd
00000080: be92 32be 2f19 353d 68c5 9bbd 80dc edbd
00000090: ee6c 6b3d b4d6 4abd 011b 11be a4fd d7bd
000000a0: fe81 7bbd 54bb ce3d ade0 bb3c 1bf4 f83d
000000b0: 1716 32bd 4fe5 19be 07e8 193e 963d 98bc
000000c0: a3cd fcbc 6a57 ab3c fdfa 453c 161c d1bd
000000d0: a911 a13c 8d87 243e e501 fd3d a528 40be
000000e0: d804 5e3d 6de6 903d 19d5 873d ad79 86bd
000000f0: 2b5a 143e fc8e 28be ca50 8a3d 0318 de3d
00000100: c862 103e bf5d f33d 26eb db3d c3ca 953d
00000110: 0330 ddbd 94a2 46bd 5745 b4bb 0c89 d33d
00000120: a572 fa3d 9562 d43d 6247 46bd be00 683d
00000130: d9f5 10bd fc1a ee3c f353 c7bc 4bbe 613d
00000140: fa76 51bb 1311 79bb 4a99 933c d62e 84bd
00000150: 7aa8 47be 34f7 22be 478e 00be 791f f7bd
00000160: cdef e33d 21f1 1ebe 8f87 febd 8fd1 29bd
00000170: 80ee 4b3d 2bfa 2c3d 9ecf df3d e04e cabd
00000180: 1d63 bb3c cfe1 9a3d 2b5f edbd 8341 ad3a
00000190: 0752 263d 0d85 30bd b64d f8bd f421 a8bb
000001a0: 4294 9bbd cfed a43c cbf2 323e 82f6 c0bd
000001b0: 11b1 46bc 905c 5e3e 9655 7d3d cdb2 363e
000001c0: 4c82 dbbd 3971 903c 70e0 31bd 8314 cd3d
000001d0: 0dd4 09be a433 a6bc 7486 18be 7e63 253e
000001e0: 065f 0cbe 7f3a 063e ae3d 08be 0690 3d3c
000001f0: bd09 bdbc 73e1 6c3d df18 97bd 5ce9 4fbd
00000200: d9db 893d a03c f53d 5e7b f63c 7fa7 41bc
00000210: 892e 09be 3d4e d6bc 424c 01be da80 cdbd
00000220: c638 113e c2af 38be 7f5f 0bbd 03b7 69bd
00000230: 228d 0b3e 9f80 adbc c1e3 23be 3921 05be
00000240: 204f 98bd 6bb4 163d 316d 8b3d 1fbd 1d3d
00000250: bb00 1bbe 37af e53d 6cc7 febd 0cf5 c8bd
00000260: cf63 103d 08e8 35bc a8af 013d 71a1 6c3d
00000270: 3776 113e 6c84 083e 994e d33d d144 dc3d
00000280: f8ac ba3d a9b1 c1bd fe1c 043e fe1c 31be
00000290: 6659 32bc 81ac f73d 166d 9e3d bb14 2bbe
000002a0: ca3e 12bd fdd4 363d ad4a f3bd 8abd 293e
000002b0: 2ebf aabd ea85 7cbd 044a 86bc fe2b b53c
000002c0: cc3e ab3c 9fb5 09be 3278 7c3d 28a5 c63c
000002d0: c799 96bb 85eb 203c c3e7 693d ef94 ae3c
000002e0: 936a aebd 3990 113d 5ac4 0e3d 515c 6dbd
000002f0: f181 153e ff60 afbd f596 55bb 271e 17be
00000300: e350 1e3e 7cf5 283e 450d 3fbe 9461 e0bd
00000310: 5bcc e7bb 9410 6abd 1b33 183e b98c 40bd
00000320: 63fe 943d 84c3 adbd ee29 afbd b486 11be
00000330: 4652 cd3c 4355 3d3e 35c6 073e 1fcf 0b3e
00000340: 1fff 443e 9862 4d3e 647b cdbd c03b b7bd
00000350: ac1e e3bd a1ec cc39 0820 0c3e 109c 003e
00000360: 9575 0a3e 8d95 ee3d aeee 20bd 36df 4ebb
00000370: 3804 bfbd 819e 273e 7105 b43c 5305 133e
00000380: 79e1 14be 8797 d3bd c6a3 093d 83f1 a93d
00000390: e7ae 0b3e 6882 253e a46a 9dbd cc29 b83d
000003a0: c4f0 013d ed60 e6bd 7cf6 8cbc ae95 86bc
000003b0: 5281 efbc a9fe 7ebd 2ec4 c9bc 890b 183e
000003c0: 0ce1 943d 0450 0dbd f9f6 233d bcba aa3c
000003d0: d751 c43c fbc4 523d 2262 0a3e 4dbe 17be
000003e0: 1946 453d 04cc 0b3b 9595 e63d b38c 24be
000003f0: d7d6 bfbd 7ce6 edbc af6f e33d 4cee afbd

blocks.0.fcn_layer.bias f4 [32]
-0.18343747 -0.18953854 0.025380895 -0.14054698 0.023136586 -0.078828864 0.011627258 0.14965126
0.0058536 -0.020347008 0.16024612 0.10863629 0.18782593 -0.15314643 0.14618117 0.059551567
-0.020435492 -0.1612844 0.12982824 0.053478952 -0.02011895 0.12118438 -0.16179413 0.12504195
-0.13912539 0.042133905 -0.146927 -0.036338713 0.09208459 -0.12637979 0.06858806 0.1399388
00000000: 08d7 3bbe 6416 42be 98eb cf3c 8ceb 0fbe
00000010: f088 bd3c 0771 a1bd 4180 3e3c 2e3e 193e
00000020: 8ecf bf3b c5ae a6bc 8f17 243e b47c de3d
00000030: 7155 403e 6bd2 1cbe 84b0 153e 58ec 733d
00000040: 5568 a7bc bd27 25be b2f1 043e bf0c 5b3d
00000050: 7fd0 a4bc 842f f83d 5cad 25be ff0a 003e
00000060: e376 0ebe 9a94 2c3d 0874 16be e7d7 14bd
00000070: d896 bc3d b469 01be e677 8c3d 1e4c 0f3e

blocks.0.layer_norm.weight f4 [32]
1.0721108 1.1899171 1.0030215 1.0115762 0.99646485 1.2160393 1.0402533 1.2090802
1.0746812 1.20884 1.1886404 1.198535 1.0772357 1.0160522 1.0762001 1.3142415
1.249976 0.99508345 1.0778651 1.1029902 1.000153 1.0085778 1.2229788 1.2333597
1.029222 1.1842419 0.98642707 1.2150085 1.0625415 1.1042548 1.2464539 1.0331359
00000000: ed3a 893f 344f 983f 0263 803f 547b 813f
00000010: 5218 7f3f 2da7 9b3f 0527 853f 24c3 9a3f
00000020: 278f 893f 45bb 9a3f 5e25 983f 9869 993f
00000030: dce2 893f 000e 823f edc0 893f 1139 a83f
00000040: 37ff 9f3f cabd 7e3f 7cf7 893f c82e 8d3f
00000050: 0305 803f 1419 813f 928a 9c3f bbde 9d3f
00000060: 8cbd 833f 3d95 973f 7c86 7c3f 6685 9b3f
00000070: 5c01 883f 3958 8d3f cd8b 9f3f cc3d 843f

blocks.0.layer_norm.bias f4 [32]
0.07778382 0.213721 -0.0068633384 -0.018153826 -0.006877826 0.21019478 0.035709605 0.2080748
0.06648416 0.203803 0.20407985 0.20603837 0.062145457 0.021198856 0.059431337 0.24303809
0.22332588 -0.02224309 0.055718146 0.07283251 -0.004874286 0.007605479 0.21650037 0.21547557
0.031706057 0.20341486 -0.012292811 0.20844431 0.05591049 0.11642154 0.22132552 0.027892642
00000000: 204d 9f3d aed9 5a3e dbe5 e0bb 55b7 94bc
00000010: 635f e1bb 4d3d 573e 3c44 123d 8f11 553e
00000020: d928 883d bcb1 503e 4ffa 503e b9fb 523e
00000030: 3c8c 7e3d 39a9 ad3c 466e 733d fade 783e
00000040: 8aaf 643e 2437 b6bc b638 643d 3629 953d
00000050: 79b8 9fbb 6237 f93b 46b2 5d3e a1a5 5c3e
00000060: 36de 013d fc4b 503e c967 49bc 6d72 553e
00000070: 6602 653d 6b6e ee3d 28a3 623e 1c7f e43c

last_layer.weight f4 [1, 32]
0.11144164 -0.2674219 0.09866114 0.06456807 0.004477061 -0.33418384 0.1940555 -0.3204245
0.054204848 -0.36200318 -0.31835458 -0.35569268 0.17554228 0.07621966 0.20605007 -0.3296845
-0.3192746 0.020557795 0.2369009 0.22601846 -0.050573424 0.020689294 -0.29322955 -0.32441458
0.14696226 -0.32802173 0.012615535 -0.34593645 0.120571375 0.19284323 -0.33266222 0.1779751
00000000: 843b e43d 86eb 88be da0e ca3d 443c 843d
00000010: 4fb4 923b 251a abbe 7cb6 463e ae0e a4be
00000020: e705 5e3d 7b58 b9be 5fff a2be 5a1d b6be
00000030: 5bc1 333e 0e19 9c3d cafe 523e 68cc a8be
00000040: f677 a3be d268 a83c 2696 723e 6271 673e
00000050: 1426 4fbd 987c a93c 2f22 96be ab19 a6be
00000060: 467d 163e 77f2 a7be 64b1 4e3c 951e b1be
00000070: 20ee f63d b278 453e b452 aabe 1b3f 363e
